src/elasticc2_training/top_level_model/best-model.pt (torch, 48877 bytes, 8 tensors)

input_fc.weight f4 [64, 29]
-0.016087659 0.004491679 0.04415155 0.015418997 -0.011572399 0.011922198 -0.0060876957 -0.00049671216
-0.0048812963 0.0051333313 -0.03628092 0.013443303 -0.0068486007 -0.1746049 -0.28921458 0.58695364
0.03392633 -0.018689303 -0.077237226 -0.037740964 0.44308457 0.45917153 0.8254867 0.59331936
0.026962869 0.8527572 0.0584855 0.17022897 -0.09417472 0.008492068 -0.036450867 0.11457877
0.03556208 -0.010384427 -0.005422116 0.020150965 -0.001062315 -0.018321622 -0.0005155164 0.71698946
0.017240323 0.01641581 -0.06408356 -0.06761415 0.002629796 0.039659794 0.03208112 -0.043322213
-0.092746995 -0.37755394 0.068259776 0.29330334 0.33949915 0.010957864 -0.6895092 0.3845603
-0.01391694 -0.0005470243 0.011771995 -0.07018118 0.32453838 -0.013579267 0.034069315 0.0016514758
0.04472299 0.030993352 0.032407526 0.015099678 -0.11294962 0.060006816 -0.014458136 -0.06945728
0.89028966 -0.71760917 0.51304793 0.03701567 0.031353116 0.45425978 0.3954672 -0.07394505
0.34405693 0.15488452 0.37212446 -0.32729113 0.2639947 0.39730442 0.4168853 -0.006318694
-0.005976841 -0.08231374 0.03409358 -0.05285617 -0.07227752 -0.071661025 -0.046710745 -0.03866085
-0.03792994 -0.082422435 -0.03925675 -0.037591226 -0.007630594 0.02575944 -0.12855761 0.06856098
-0.008116829 -0.0041710725 0.19709197 0.041179985 -1.0488445 -2.2458746 -1.358197 0.09411949
-0.0656239 -0.9590992 -1.520757 -0.31601197 0.004260147 -0.0051343474 -0.030364651 -0.002108029
-0.018017953 0.004935884 0.010909916 0.0054789316 0.035621297 0.024114434 -0.042402945 -0.008260193
-0.019894151 -0.13098718 0.010925977 -0.0054623475 -0.09890822 0.102830276 -0.13545336 -0.005434788
0.040178422 -1.8519462 -1.415067 -3.235448 -0.16190201 0.10175403 -0.031396613 0.08960453
0.062100906 0.014390673 0.020525496 -1.6359091 -0.044629883 0.02931921 0.034929622 0.032204792
0.05672675 0.030571438 0.023612276 0.017156042 -0.05889331 0.048150692 0.050783414 -0.0052597537
-0.022418201 -0.17466214 0.04000594 -0.02173318 -0.20887545 0.22088636 0.22052057 0.1598164
0.23137666 -0.17830518 0.1510243 0.033211596 0.04834514 0.01598904 0.034836616 0.040086564
-0.042379137 -0.020295529 -0.0005302201 0.005297587 0.032019354 0.028573433 0.01631036 0.010473927
-0.06734219 -0.019128095 0.3468375 0.09398918 -0.024537235 0.011277962 -0.030912673 0.25727904
0.08129288 0.006469022 0.036975604 -0.7710174 -1.234618 -1.4414601 -0.024875112 0.22096725
-0.12478811 0.26666924 -0.12943697 -0.0013815144 -0.0070034214 -0.023360865 0.018517528 -0.0027532908
0.015670702 -0.007916801 -0.016797207 -0.0008367791 -0.015742877 -0.01278236 0.008270979 -0.0040591313
-0.06918098 -0.033771444 -0.08337936 -0.25137585 0.37216827 -0.08923257 -0.15471925 -0.1463721
0.39953205 -4.878265 -0.5164831 -0.15378116 0.73457575 -0.869754 -1.3566486 -0.85322344
0.02884083 -0.009386743 0.006613313 0.04503482 -0.07312369 -0.026129082 -0.018846197 -0.047232583
-0.04811342 -0.038719546 -0.11399071 -0.056259394 -0.4686592 0.0063452376 -0.41125003 -0.6824348
0.19464724 0.10971377 0.104913235 0.26723528 0.29378933 -0.1494517 -0.22104797 -0.6381934
00000000: 44ca 83bc ef2e 933b 41d8 343d f69f 7c3c
00000010: 299a 3dbc 5355 433c 4b7b c7bb ca35 02ba
00000020: 48f3 9fbb 8135 a83b 4d9b 14bd 4d41 5c3c
00000030: 3a6a e0bb a0cb 32be ef13 94be 9842 163f
00000040: 56f6 0a3d 4f1a 99bc 8d2e 9ebd 4596 1abd
00000050: fbdb e23e 8818 eb3e 1953 533f c7e3 173f
00000060: 3ce1 dc3c 4c4e 5a3f 7e8e 6f3d 8150 2e3e
00000070: adde c0bd 5122 0b3c 814d 15bd 46a8 ea3d
00000080: 8ba9 113d 7223 2abc 01ac b1bb a313 a53c
00000090: 603d 8bba 3a17 96bc b823 07ba 9f8c 373f
000000a0: 943b 8d3c 737a 863c 3e3e 83bd 4a79 8abd
000000b0: a858 2c3b 4f72 223d 7e67 033d a272 31bd
000000c0: 23f2 bdbd c04e c1be c8cb 8b3d db2b 963e
000000d0: d5d2 ad3e 9d88 333c ad83 30bf 16e5 c43e
000000e0: e103 64bc 2e66 0fba 53df 403c 27bb 8fbd
000000f0: e529 a63e 937b 5ebc 448c 0b3d 5576 d83a
00000100: 742f 373d c5e5 fd3c c1bd 043d a464 773c
00000110: 2152 e7bd b5c9 753d d1e1 6cbc 9e3f 8ebd
00000120: 06ea 633f 3cb5 37bf 1c57 033f be9d 173d
00000130: 206c 003d bd94 e83e ad7a ca3e 8170 97bd
00000140: 3b28 b03e 0c9a 1e3e 1987 be3e b492 a7be
00000150: 502a 873e 7c6b cb3e fd71 d53e 0c0d cfbb
00000160: 60d9 c3bb 1b94 a8bd b6a5 0b3d b67f 58bd
00000170: 3d06 94bd 04c3 92bd c453 3fbd d75a 1ebd
00000180: 6d5c 1bbd 18cd a8bd b0cb 20bd 42f9 19bd
00000190: 100a fabb 7605 d33c 9ba4 03be b369 8c3d
000001a0: 73fc 04bc 7ead 88bb 7ad2 493e 58ac 283d
000001b0: 8940 86bf 69bc 0fc0 66d9 adbf b8c1 c03d
000001c0: d365 86bd 8687 75bf 2aa8 c2bf 52cc a1be
000001d0: b498 8b3b 073e a8bb 4abf f8bc dc26 0abb
000001e0: 639a 93bc 32bd a13b 81bf 323c 9c88 b33b
000001f0: a3e7 113d a28b c53c b6ae 2dbd c355 07bc
00000200: 0ff9 a2bc 8121 06be de02 333c 7efd b2bb
00000210: 6590 cabd ae98 d23d 49b4 0abe 4e16 b2bb
00000220: 2192 243d 930c edbf ea20 b5bf 9411 4fc0
00000230: a4c9 25be 6b64 d03d bc99 00bd 9482 b73d
00000240: 855d 7e3d dbc6 6b3c 1625 a83c 7865 d1bf
00000250: d3cd 36bd d72e f03c 5d12 0f3d 2ce9 033d
00000260: 4f5a 683d f470 fa3c 886e c13c d48a 8c3c
00000270: 1d3a 71bd a939 453d 4502 503d 035a acbb
00000280: 60a6 b7bc a2da 32be 45dd 233d c809 b2bc
00000290: 72e3 55be 0930 623e 25d0 613e e9a6 233e
000002a0: 01ee 6c3e a295 36be 1da6 1a3e e208 083d
000002b0: 8e05 463d 72fb 823c d7b0 0e3d cf31 243d
000002c0: bf95 2dbd cf42 a6bc 78fe 0aba 6197 ad3b
000002d0: ba26 033d d512 ea3c 4e9d 853c d59a 2b3c
000002e0: b4ea 89bd 86b2 9cbc af94 b13e 667d c03d
000002f0: 5002 c9bc 33c7 383c 933c fdbc 14ba 833e
00000300: e27c a63d 17fa d33b bb73 173d 6561 45bf
00000310: f607 9ebf c481 b8bf e4c6 cbbc 3d45 623e
00000320: e990 ffbd df88 883e 208b 04be ee13 b5ba
00000330: f57c e5bb 495f bfbc 12b2 973c 8e70 34bb
00000340: d85f 803c 78b5 01bc 4c9a 89bc 4b5b 5bba
00000350: 35f7 80bc 1b6d 51bc 0083 073c 7602 85bb
00000360: c2ae 8dbd ed53 0abd ccc2 aabd 56b4 80be
00000370: d78c be3e 91bf b6bd b96e 1ebe 91e2 15be
00000380: 778f cc3e bf1a 9cc0 3d38 04bf cf78 1dbe
00000390: 280d 3c3f 33a8 5ebf a9a6 adbf da6c 5abf
000003a0: 9b43 ec3c dbca 19bc 7eb4 d83b 6e76 383d
000003b0: e0c1 95bd a80c d6bc 5763 9abc f476 41bd
000003c0: 9412 45bd 6398 1ebd f673 e9bd 4070 66bd
000003d0: 19f4 efbe b6eb cf3b 5d8f d2be 0cb4 2ebf
000003e0: 9b51 473e 9db1 e03d c0dc d63d 10d3 883e
000003f0: 8e6b 963e de09 19be 665a 62be a560 23bf

input_fc.bias f4 [64]
0.046947278 -0.7788453 -0.32086462 -0.38247836 -0.36059448 -0.73241234 -0.74891436 -0.29649684
-0.13172418 -0.869945 -0.40803325 -0.41253757 -0.44977707 -0.5419857 -0.6683308 -0.45917577
-0.3842625 -0.88700604 -0.34107068 -0.295909 0.045204896 -0.6844843 -0.18214343 -0.2665072
-0.25349534 -0.49097958 -0.6988076 -0.511837 -0.47321868 -0.73441577 -0.037968945 -0.26984733
-0.045238454 -0.31346044 -0.5331337 -0.30592963 -0.20810486 -0.20858915 -0.58613217 -0.4612669
-0.56172174 -0.10896545 -0.8380017 -0.30956593 -0.39763546 -0.9338824 -0.42406467 -0.5590445
-0.6351159 -0.10051983 -0.14499436 -0.332269 -0.3089692 -0.29549935 -0.65198857 -0.31369475
-0.4943473 -0.46857604 -0.1663356 -0.5631306 -0.16746394 -0.34493035 -0.62395984 -0.121180825
00000000: ca4b 403d 6862 47bf 5e48 a4be 34d4 c3be
00000010: d79f b8be 607f 3bbf dab8 3fbf 6fce 97be
00000020: b4e2 06be b7b4 5ebf bce9 d0be 2038 d3be
00000030: 2e49 e6be 93bf 0abf ba17 2bbf 1619 ebbe
00000040: 0ebe c4be d412 63bf d1a0 aebe 6281 97be
00000050: c528 393d 5d3a 2fbf cf83 3abe a273 88be
00000060: 24ca 81be ad61 fbbe 0ee5 32bf c007 03bf
00000070: b849 f2be ac02 3cbf 5385 1bbd 6e29 8abe
00000080: f54b 39bd e37d a0be 737b 08bf cfa2 9cbe
00000090: 7119 55be 6598 55be c20c 16bf 2d2b ecbe
000000a0: ffcc 0fbf 4729 dfbd 4887 56bf 6d7f 9ebe
000000b0: e096 cbbe eb12 6fbf 011f d9be 8a1d 0fbf
000000c0: f596 22bf 57dd cdbd 6779 14be 2a1f aabe
000000d0: 3631 9ebe b14b 97be b9e8 26bf 999c a0be
000000e0: 171b fdbe 33e9 efbe e153 2abe 5429 10bf
000000f0: ab7b 2bbe b69a b0be d5bb 1fbf a72d f8bd

hidden_layers.0.weight f4 [64, 64]
0.05931082 -0.5863999 0.10066525 -0.06133745 0.0704812 -1.0877033 -0.0022320123 -0.041215334
0.1362234 -0.9568687 0.048518434 0.062566444 0.06205852 -0.6007008 -0.47322166 -0.040121954
0.0872817 -0.5001501 -0.5904065 0.14221174 0.1391533 -1.0692942 -0.5417976 0.019185837
0.09511479 -0.0029880537 -1.2696697 0.031226749 0.031325497 -0.6979901 -0.61069506 0.113886535
-0.3819358 0.083839186 -0.5613579 0.011592112 0.016709322 0.11581841 0.10723195 -0.62501633
0.09385269 -0.15125382 -0.3042545 -0.071082726 -0.038783196 -0.1587864 -0.016642282 -0.5525496
-1.519562 -0.49619493 0.14786899 -0.49275035 -0.124736376 0.103514545 0.076561555 -0.30450898
0.05209269 0.015104528 -0.4910311 -0.49950963 -0.7490274 -1.2544484 0.08019836 0.14795555
-0.09009269 -0.9380759 -0.33588886 0.024485571 0.054745015 0.008302529 0.21460086 0.10786368
0.010234561 -0.76266754 -0.116727695 0.091075055 0.1746723 -0.014646234 0.017522855 0.13354371
0.06558086 0.3207916 0.044229627 0.18461052 -0.2257274 0.027521066 0.021909859 -0.0010719431
-0.73110026 -0.016868751 -0.032160502 0.22428542 -0.16225761 0.08071555 0.04874647 0.044648733
0.02453161 0.19369327 -0.28839728 0.33763286 -0.56161565 -0.8487507 -0.091421284 -0.21316952
0.019407395 0.027158584 -1.6860667 0.022749892 0.09008881 -0.592305 0.042927172 -0.279106
-0.034515444 0.002427083 -1.7157856 0.018359618 -0.01755364 0.16347572 0.056648206 -0.029411547
0.039742876 -0.06318421 -0.028788386 -0.0033348226 -0.007008618 0.0020275945 0.001500216 0.022153419
0.05105599 -0.72016895 -0.61249423 0.15296352 0.05919526 -0.09710707 -0.010051698 -0.037237663
0.046276044 -0.98496056 -0.10967965 -0.0769388 -0.07211354 0.08285816 0.090085626 -0.042682867
-0.06368508 0.06933708 -0.05054831 -0.018626241 0.07432449 -0.041120682 0.044380743 0.012117232
-0.047462467 -0.25721303 -0.19047149 -0.029912908 0.017721878 0.116355166 0.048392188 0.0009326956
0.07353846 -0.040613137 -0.89275604 0.011297118 -0.3002136 0.045602344 -0.29385743 -0.3930873
-0.30180854 0.025147231 0.2927948 -0.012011828 -0.03411517 0.35798603 -0.56436753 -1.1850209
0.04725898 -0.0016041358 -0.020918041 0.1206597 -0.015101949 0.042980194 -0.038975287 -0.048315946
-0.13624837 -0.20889488 0.070280775 0.16665831 -0.050777685 0.037078958 -0.09391906 0.041491777
-0.0026932962 0.12593855 0.015790096 -0.87637323 -0.85593534 -0.21891879 -0.49491933 -0.7192034
-0.0040174737 0.07183167 -0.4256513 0.0214779 -0.09899443 -0.5352458 -0.33552817 0.053178012
0.061527062 -0.012162989 -0.5019444 -2.1930337 0.026136091 -0.39332408 -0.5886408 -0.27945846
0.045287028 -0.23654662 -0.1994848 -0.062230837 -0.19318432 -0.086288325 -0.7187838 -0.97364235
-0.7635242 -1.3706406 -0.009925471 -1.1827693 0.035395376 -0.008633614 0.034724228 0.059025057
0.0628635 -0.6767382 -0.78812176 -0.6212175 -1.1745453 -0.33575475 0.01763385 0.043760583
-0.3643366 -0.6789429 0.14863592 -0.83222556 -0.65511394 -0.20321304 -0.115570754 -0.83448005
0.03431492 0.0446133 -0.612934 -0.40605703 -0.08759586 -0.54276955 0.03375254 0.12219314
00000000: e7ef 723d 4e1e 16bf 9529 ce3d fa3c 7bbd
00000010: 7358 903d dd39 8bbf f446 12bb 69d1 28bd
00000020: 267e 0b3e 59f5 74bf 44bb 463d d622 803d
00000030: 1331 7e3d 87c7 19bf 1c4a f2be eb56 24bd
00000040: bfc0 b23d d609 00bf e124 17bf f49f 113e
00000050: 347e 0e3e a2de 88bf 3fb3 0abf 9e2b 9d3c
00000060: 8bcb c23d 39d3 43bb 8984 a2bf 3dcf ff3c
00000070: 2a4f 003d 7baf 32bf 8356 1cbf 583d e93d
00000080: 178d c3be e1b3 ab3d 27b5 0fbf d7ec 3d3c
00000090: fde1 883c 3432 ed3d 6d9c db3d 1201 20bf
000000a0: d735 c03d 48e2 1abe 3fc7 9bbe d293 91bd
000000b0: 21db 1ebd e798 22be 6555 88bc e473 0dbf
000000c0: 0281 c2bf 430d febe f86a 173e c649 fcbe
000000d0: c975 ffbd 6fff d33d 4ecc 9c3d 9ae8 9bbe
000000e0: 255f 553d fb78 773c 6e68 fbbe babf ffbe
000000f0: 42c0 3fbf c491 a0bf 0a3f a43d a981 173e
00000100: 8482 b8bd be25 70bf a0f9 abbe f795 c83c
00000110: 4f3c 603d 5507 083c 54c0 5b3e a2e7 dc3d
00000120: dcae 273c 2e3e 43bf ee0e efbd 8f85 ba3d
00000130: 4cdd 323e c2f6 6fbc 178c 8f3c afbf 083e
00000140: 424f 863d cc3e a43e 202a 353d 8a0a 3d3e
00000150: 1525 67be dc73 e13c 4e7c b33c 7180 8cba
00000160: 6329 3bbf 5630 8abc bbba 03bd 14ab 653e
00000170: dc26 26be 324e a53d 61aa 473d 97e1 363d
00000180: 84f6 c83c 8757 463e cfa8 93be 37de ac3e
00000190: 0bc6 0fbf ba47 59bf 153b bbbd 1c49 5abe
000001a0: 42fc 9e3c ae7b de3c 09d1 d7bf fb5d ba3c
000001b0: 7b80 b83d 4da1 17bf 67d4 2f3d fbe6 8ebe
000001c0: 1160 0dbd b20f 1f3b dd9e dbbf e966 963c
000001d0: a7cc 8fbc 2e66 273e f307 683d 7cf0 f0bc
000001e0: 6dc9 223d b966 81bd 9fd5 ebbc 0a8d 5abb
000001f0: 8da8 e5bb 64e1 043b e5a2 c43a 167b b53c
00000200: 1620 513d fe5c 38bf 6ccc 1cbf 78a2 1c3e
00000210: bb76 723d 12e0 c6bd e1af 24bc 8586 18bd
00000220: f38b 3d3d 6026 7cbf b99f e0bd 1792 9dbd
00000230: 43b0 93bd 8ab1 a93d d07e b83d 3bd4 2ebd
00000240: 536d 82bd 9900 8e3d bf0b 4fbd 0f96 98bc
00000250: 7037 983d 296e 28bd 95c8 353d 5b87 463c
00000260: 0168 42bd 6db1 83be f50a 43be ea0b f5bc
00000270: 792d 913c 9e4b ee3d e336 463d 2480 743a
00000280: 559b 963d f659 26bd a98b 64bf 8c17 393c
00000290: 99b5 99be 86c9 3a3d 7b74 96be bd42 c9be
000002a0: a686 9abe 9101 ce3c 33e9 953e 42cd 44bc
000002b0: 59bc 0bbd f249 b73e 647a 10bf c4ae 97bf
000002c0: a292 413d de41 d2ba 505c abbc 6f1c f73d
000002d0: 2a6e 77bc 000c 303d 8da4 1fbd f1e6 45bd
000002e0: b184 0bbe 8ae8 55be 5eef 8f3d 7aa8 2a3e
000002f0: 43fc 4fbd 1be0 173d a358 c0bd 48f3 293d
00000300: 0382 30bb 09f6 003e 3b5a 813c ff59 60bf
00000310: 941e 5bbf 3f2c 60be 1166 fdbe b71d 38bf
00000320: 03a5 83bb 7c1c 933d f8ee d9be 6cf2 af3c
00000330: 97bd cabd de05 09bf 59ca abbe 30d1 593d
00000340: cd03 7c3d 4647 47bc 6e7f 00bf aa5a 0cc0
00000350: 5b1b d63c c661 c9be 2ab1 16bf 2e15 8fbe
00000360: e47e 393d 4739 72be be45 4cbe c3e5 7ebd
00000370: 1cd2 45be efb7 b0bd 3702 38bf a040 79bf
00000380: 5276 43bf 2771 afbf 719e 22bc fc64 97bf
00000390: befa 103d 0074 0dbc fe3a 0e3d 42c4 713d
000003a0: 94be 803d b73e 2dbf 59c2 49bf 1c08 1fbf
000003b0: 8057 96bf 0ce8 abbe dd74 903c 4c3e 333d
000003c0: 548a babe 34cf 2dbf 0434 183e bc0c 55bf
000003d0: 8cb5 27bf 1417 50be 5cb0 ecbd 7ca0 55bf
000003e0: cd8d 0c3d 70bc 363d 3ee9 1cbf b5e6 cfbe
000003f0: 7565 b3bd f2f2 0abf 1a40 0a3d 6640 fa3d

hidden_layers.0.bias f4 [64]
0.041606817 0.091904126 0.005098322 0.2397848 -0.037858162 -0.029607397 0.08897456 0.007163949
-0.0018497171 -0.0012879521 -0.15813889 0.15552528 0.10976926 0.032260846 0.05667767 0.04398834
-0.01382469 0.0048594335 0.022216525 0.122627206 0.14706424 0.13628794 -0.021083146 0.15458448
0.020001212 0.062135153 0.09340059 0.17453648 0.020439051 -0.00066680176 0.03197556 0.259233
0.172855 0.14654453 0.13210359 0.069772065 0.041355964 0.0027732085 0.0068517285 -0.023041977
0.046560336 0.12715133 0.145602 0.14551793 0.12152406 0.13138688 0.1869293 0.14072122
0.24702139 0.09089833 0.11674097 0.054223064 -0.21018673 0.086335495 0.10213133 0.05428426
-0.027143577 0.2802232 -0.026697341 0.13637957 0.014987289 0.08675682 0.10920867 0.11568495
00000000: e96b 2a3d 3b38 bc3d d30f a73b 268a 753e
00000010: 2911 1bbd 368b f2bc 4b38 b63d 8fbf ea3b
00000020: 3572 f2ba 80d0 a8ba 29ef 21be 0542 1f3e
00000030: b5ce e03d f323 043d d826 683d 1e2d 343d
00000040: f480 62bc e23b 9f3b 6eff b53c f923 fb3d
00000050: 0298 163e 118f 0b3e 90b6 acbc 654b 1e3e
00000060: 95d9 a33c 6e81 7e3d cf48 bf3d b1b9 323e
00000070: cc6f a73c 4fcc 2eba cef8 023d 30ba 843e
00000080: e700 313e c50f 163e 2a46 073e a8e4 8e3d
00000090: df64 293d b8be 353b 7784 e03b 87c2 bcbc
000000a0: 0db6 3e3d f533 023e b118 153e a702 153e
000000b0: 9be1 f83d 488a 063e 656a 3f3e 3919 103e
000000c0: 2df3 7c3e e728 ba3d e415 ef3d 0119 5e3d
000000d0: 313b 57be aad0 b03d 3b2a d13d 2c59 5e3d
000000e0: 355c debc 6a79 8f3e 62b4 dabc 16a7 0b3e
000000f0: 3f8d 753c 8fad b13d cca8 df3d 3bec ec3d

hidden_layers.1.weight f4 [64, 64]
-0.25806162 -0.047588356 0.09306716 -0.53583896 -0.07821769 0.047111437 -0.6686648 0.0008651599
0.061257698 -0.022244666 -0.072214544 0.10074887 -0.6580871 -0.60151815 0.010935241 -0.95424676
0.123145804 0.14911129 -0.14058569 -0.07605113 -0.6078697 -0.18275547 -0.048696917 0.0049374187
0.36295405 0.056278743 -0.7353048 -0.4984795 0.21137159 0.0059833243 0.1688218 0.06587637
-0.3554351 -0.79616 -0.7184854 -0.5778673 -0.69994485 -0.08872621 0.20992965 0.1727083
-0.57232857 -0.3997737 -0.05451704 0.13878328 0.0074476255 -0.6719658 -0.11924919 -0.19397101
-0.26946968 -0.38431117 0.03673024 -0.006485249 -0.015223858 -0.42155212 -0.30566797 0.011269549
0.51878786 -0.0791602 -0.09109155 -0.59875065 0.071290895 -0.31331137 -0.70122904 -0.0014906512
-0.29206404 -0.0045736767 0.25195968 -0.5687569 -0.044275764 0.020966323 -0.5999571 -0.0852935
0.08248558 -0.020287897 -0.022384848 0.023539882 -0.011112034 -0.5970017 0.19999416 -0.87788284
0.11986663 0.1634187 -0.2564311 -0.011099913 -0.5629408 0.030761873 -0.007133843 0.348661
0.4220636 0.12497089 -0.39935863 -0.4367884 0.26711068 0.25091454 0.13233575 -0.058528043
-0.06882832 -0.3754467 -0.4985288 -0.5003953 -0.7225226 -0.06682334 0.28371915 0.24403158
-0.52960026 -0.4948199 -0.011789432 0.07221469 0.059994 -0.82694787 -0.027981846 0.038884334
-0.021869859 -0.019206323 -0.0693854 0.21701562 0.0151333455 -0.58460385 -0.68242496 0.22533852
0.20180753 -0.17690071 -0.048191484 0.025524668 0.18647744 -0.19730552 -0.5013742 -0.007821721
-0.032926604 -0.16337393 -0.3366059 0.3748403 -0.07853589 -0.030211402 -0.0056525404 -0.34877756
-0.14712028 0.12803146 -0.32930845 0.13890533 -0.10039671 0.022874633 -0.0948503 -0.2203511
-0.2464459 -0.3746826 0.0002804095 0.0079487525 0.37135562 0.020478725 0.017315941 -0.21153541
-0.20602468 -0.028308168 0.16835138 0.35776228 -0.33008978 -0.273212 -0.12963612 0.11776548
-0.016265808 0.41633385 -0.16081838 0.09941828 0.024576887 -0.23551305 -0.2271863 -0.23181875
0.042763077 -0.007801506 -0.03671083 0.34145454 0.13263118 0.15352532 -0.0224075 0.032036565
0.019105291 -0.045128487 -0.092472374 -0.10576133 -0.15565453 -0.17268468 1.0374011 -0.10648085
0.15182084 0.32855254 -0.03953394 0.059329033 -0.46706432 0.0120886 0.028908972 -0.03954657
-1.0801183 0.04191927 -0.0489465 -0.27498907 -0.006802375 -0.4916973 -0.01585104 0.043868244
0.076457135 0.03471589 -0.012234092 -1.0243406 -0.41719276 -0.15183108 -0.06956307 -0.067077905
-0.004228821 -0.121381864 -1.2673827 -0.033782214 0.033565275 -0.05024978 0.01505232 -0.0482884
0.15849105 -0.09032589 0.01993098 0.112428926 -0.037081134 0.06053062 -0.02934042 0.22659776
-0.1332249 0.14838558 0.057572134 0.037289564 -0.14944683 0.029607255 0.0040784613 0.0112433415
-0.29875922 -1.2940518 -0.13640998 0.09987243 0.298402 0.009878319 0.21939857 -0.49617207
0.17164268 -0.31237257 -0.32015634 -0.07487074 -0.041244924 0.04148667 -0.5042676 -0.09832126
0.0978722 0.09088158 0.022575632 -0.12921348 0.0043883226 -1.626111 -0.16358206 -0.2520097
00000000: a720 84be 02ec 42bd ff99 be3d be2c 09bf
00000010: 9930 a0bd ecf7 403d 9e2d 2bbf e6cb 623a
00000020: 5ae9 7a3d 723a b6bc 38e5 93bd 6c55 ce3d
00000030: 6578 28bf 18fd 19bf ba29 333c 8449 74bf
00000040: de33 fc3d a1b0 183e b2f5 0fbe b2c0 9bbd
00000050: 599d 1bbf 4024 3bbe 6b76 47bd 12ca a13b
00000060: 1dd5 b93e 8a84 663d ef3c 3cbf b438 ffbe
00000070: cb71 583e c30f c43b 9fdf 2c3e 31ea 863d
00000080: 97fb b5be 24d1 4bbf a9ee 37bf 1def 13bf
00000090: 962f 33bf 16b6 b5bd ccf7 563e 72da 303e
000000a0: 2084 12bf 23af ccbe 424d 5fbd 341d 0e3e
000000b0: 360b f43b f305 2cbf eb38 f4bd 56a0 46be
000000c0: eef7 89be 6fc4 c4be 7372 163d 3682 d4bb
000000d0: 7d6d 79bc aed5 d7be 8380 9cbe eaa3 383c
000000e0: 48cf 043f be1e a2bd 358e babd b947 19bf
000000f0: f600 923d 596a a0be bf83 33bf f461 c3ba
00000100: 6b89 95be c8de 95bb dc00 813e 0d9a 11bf
00000110: 815a 35bd 91c1 ab3c ca96 19bf 5cae aebd
00000120: 33ee a83d ce32 a6bc 6e60 b7bc b6d6 c03c
00000130: 400f 36bc 1ad5 18bf 45cb 4c3e eebc 60bf
00000140: a37c f53d 3b57 273e f04a 83be 69dc 35bc
00000150: e31c 10bf 5300 fc3c 03c3 e9bb b283 b23e
00000160: b818 d83e bdf0 ff3d bc78 ccbe bba2 dfbe
00000170: bbc2 883e df77 803e 0683 073e 1abb 6fbd
00000180: ddf5 8cbd 8d3a c0be 2b3f ffbe e819 00bf
00000190: 3ef7 38bf adda 88bd a343 913e 6ae3 793e
000001a0: e293 07bf 0959 fdbe 7628 41bc 4ce5 933d
000001b0: 45bc 753d dbb2 53bf 2f3a e5bc 2e45 1f3d
000001c0: 6b28 b3bc 9456 9dbc ef19 8ebd 5839 5e3e
000001d0: daf1 773c 99a8 15bf 67b3 2ebf 24bf 663e
000001e0: a2a6 4e3e 7625 35be 6f64 45bd 1c19 d13c
000001f0: f1f3 3e3e 750a 4abe 0f5a 00bf ad26 00bc
00000200: 0cde 06bd 7f4b 27be 9c57 acbe 11eb bf3e
00000210: 6dd7 a0bd e77d f7bc f238 b9bb f992 b2be
00000220: b3a6 16be ae1a 033e 1e9b a8be 333d 0e3e
00000230: ca9c cdbd 9563 bb3c e040 c2bd b8a3 61be
00000240: 505c 7cbe 66d6 bfbe ed03 9339 7c3b 023c
00000250: 5322 be3e 00c3 a73c 29da 8d3c bd9c 58be
00000260: 22f8 52be 88e6 e7bc 4e64 2c3e 9e2c b73e
00000270: 8701 a9be 71e2 8bbe 55bf 04be 072f f13d
00000280: df3f 85bc b629 d53e 93ad 24be d09b cb3d
00000290: 7855 c93c 552a 71be 87a3 68be e561 6dbe
000002a0: 5628 2f3d c7a3 ffbb 185e 16bd 21d3 ae3e
000002b0: 78d0 073e be35 1d3e ef8f b7bc c638 033d
000002c0: b382 9c3c a6d8 38bd 2862 bdbd 6599 d8bd
000002d0: e763 1fbe 41d4 30be 8fc9 843f a212 dabd
000002e0: ec76 1b3e 0a38 a83e 57ee 21bd 0003 733d
000002f0: 0e23 efbe 430f 463c 82d2 ec3c 96fb 21bd
00000300: 5141 8abf 8ab3 2b3d 207c 48bd 5ecb 8cbe
00000310: 75e6 debb c0bf fbbe 0ada 81bc 30af 333d
00000320: 8f95 9c3d 4032 0e3d 8071 48bc 981d 83bf
00000330: 4a9a d5be 9b79 1bbe 1577 8ebd 2460 89bd
00000340: ec91 8abb 0e97 f8bd 9939 a2bf 385f 0abd
00000350: be7b 093d b7d2 4dbd 029e 763c 0fca 45bd
00000360: 7a4b 223e c8fc b8bd 4b46 a33c 2341 e63d
00000370: 63e2 17bd f5ee 773d 525b f0bc 3e09 683e
00000380: 1c6c 08be 64f2 173e c2d0 6b3d f1bc 183d
00000390: 9708 19be ea8a f23c 9da4 853b fe35 383c
000003a0: f8f6 98be 7da3 a5bf 0faf 0bbe eb89 cc3d
000003b0: 26c8 983e acd8 213c 05aa 603e 440a febe
000003c0: 19c3 2f3e 4cef 9fbe 88eb a3be d555 99bd
000003d0: 70f0 28bd eded 293d ae17 01bf a85c c9bd
000003e0: 3871 c83d 1f20 ba3d 88f0 b83c 8a50 04be
000003f0: ebcb 8f3b 6824 d0bf 0e82 27be 6a07 81be

hidden_layers.1.bias f4 [64]
0.2833279 0.14615199 0.046904363 0.33892414 0.23948629 0.13676429 0.48455536 0.39549217
0.08710925 0.11194676 0.14348634 0.1502574 0.3087706 0.13224962 0.22686207 0.30488262
0.38966107 0.36242184 0.24859737 0.15413861 0.27591774 0.1452892 0.441047 0.32688326
0.1625027 0.1958039 0.21789111 0.067418434 0.2744014 0.106043704 0.418888 0.053378955
0.12156488 0.12006387 0.033285506 0.13551718 0.2193003 0.20299874 0.5160374 0.27314568
0.28028327 0.30566233 0.18297417 0.36324516 0.3306985 0.070945516 0.33363822 0.13535267
0.12004255 0.3093232 0.15762863 0.24612603 0.10374077 0.09176554 0.16519645 0.081162825
0.21836095 0.3164967 0.21974796 0.26369476 0.12205955 0.08006732 0.45408309 0.25708497
00000000: 5b10 913e dea8 153e ca1e 403d 7787 ad3e
00000010: e53b 753e f00b 0c3e a417 f83e f37d ca3e
00000020: 5666 b23d 5844 e53d 15ee 123e 13dd 193e
00000030: 2e17 9e3e 726c 073e 884e 683e 9319 9c3e
00000040: a881 c73e 5b8f b93e 4f90 7e3e 83d6 1d3e
00000050: 1745 8d3e b1c6 143e ead0 e13e 3e5d a73e
00000060: 1c67 263e d180 483e d91e 5f3e ad12 8a3d
00000070: 577e 8c3e 712d d93d 7d78 d63e e4a3 5a3d
00000080: 02f7 f83d 0ce4 f53d 6256 083d 04c5 0a3e
00000090: 4290 603e e7de 4f3e 071b 043f c0d9 8b3e
000000a0: 4a81 8f3e c67f 9c3e 955d 3b3e 45fb b93e
000000b0: 5051 a93e e24b 913d a1d2 aa3e e499 0a3e
000000c0: ded8 f53d 9c5f 9e3e 6669 213e 7608 7c3e
000000d0: 0a76 d43d 92ef bb3d 4229 293e b238 a63d
000000e0: 039a 5f3e db0b a23e 9c05 613e 0003 873e
000000f0: 5bfa f93d 56fa a33d 947d e83e a4a0 833e

output_fc.weight f4 [19, 64]
0.07686939 0.059034202 -1.357974 0.021460254 -1.6007543 0.064534016 -0.14308232 0.042602412
-1.9972275 -0.113878086 -0.4337496 -0.4241805 0.16490437 -1.5932235 -0.06974176 -0.27864015
-0.2356789 -0.009188464 -0.14154127 -0.20957656 -0.25098872 -0.0425976 -0.0001253816 0.096639365
0.060781922 -0.12308007 -0.099717654 -0.13960122 0.097817704 0.05917791 -0.037654016 -0.19000334
-0.49056083 0.09514231 -2.0769217 0.022432474 0.10528501 -0.082806945 0.03740683 0.12719324
0.004417076 -0.19929402 -0.09344118 0.05486941 0.0153823625 -3.140787 0.035984058 -0.7098297
-1.6583214 -0.022354545 -0.5973244 -0.3936638 0.010650642 0.05595879 -0.4196474 -0.5142628
0.06287051 -0.41535392 0.05588683 -0.3420739 -1.1791787 0.05875163 0.038774703 0.0027199946
0.07067761 0.04442675 -2.4923503 -0.07152487 -1.4242175 0.08951675 -0.24878421 0.03526482
-3.1100385 -0.3029025 -0.4631031 -0.5976365 0.088062495 -1.4447718 -0.15798678 -0.23460521
-0.086441524 -0.016389515 -0.049189437 -0.26268375 -0.3651784 -0.31427425 0.029108003 0.029445764
0.1134986 -0.097764686 -0.22895232 -0.0089715235 0.061836492 0.08057728 -0.06494472 -0.3429603
-0.5848538 0.09969863 -3.2203395 0.06760345 0.12137556 0.0022882558 0.0013554825 0.07361211
-0.106718495 -0.16458099 -0.069425136 -0.0029887133 -0.12710023 -2.7485132 -0.21359213 -0.58342093
-2.0974386 -0.122987874 -0.58009255 -0.48356467 0.03409434 0.07931845 -0.58309996 -0.5871724
0.072085984 -0.15687478 0.07793173 -0.34303278 -2.2756305 0.07888072 -0.037058797 0.08305344
0.06362799 0.045625806 -0.749005 0.053122826 -0.72845143 0.07903293 -0.058599036 0.0073002926
-0.8176826 -0.17222065 -0.67723864 -0.6360422 0.08850368 -1.1219417 -0.13127856 -0.27356663
-0.15339664 0.0018394149 -0.13744254 -0.3958533 -0.37936515 -0.25275868 0.013770652 0.114265025
0.08264408 -0.15907015 -0.30012152 -0.14703102 0.068977445 0.08013893 -0.0335948 -0.36115247
-0.6519337 0.094782315 -0.52159524 0.070642255 0.07915609 -0.031254493 0.056601606 0.11782842
-0.024034005 -0.13257839 -0.15622634 -0.009132487 -0.0646827 -0.5356461 -0.06113283 -0.69464517
-1.6561373 -0.19563605 -0.60000795 -0.5022581 -0.0013512189 0.08270785 -0.55294544 -0.5013097
0.048412517 -0.22419488 0.07220715 -0.45159513 -1.4057199 0.06379812 -0.02699487 0.035431385
0.05932348 0.06212135 0.058206547 0.02288306 -0.47288206 0.08852843 -0.19995499 0.010763658
-0.14597735 -0.20772155 -0.40896702 -0.32072592 0.1323929 0.18110605 -0.08570475 -0.25354838
-0.1453806 -0.01002051 -0.12851453 -0.28455156 -0.17068852 -0.19171804 0.00088201906 0.06512121
0.082611024 -0.09688541 -0.059629828 -0.11181417 0.059934627 0.09331294 -0.042798486 -0.36489105
-0.4241041 0.09567329 -0.20391786 0.035233166 0.08611181 -0.04895658 0.03758142 0.08314114
-0.08619729 -0.1407242 -0.08515025 -0.002701728 -0.050222326 -0.26181528 -0.056349732 -0.5269911
-0.042042755 -0.18218648 -0.46611193 -0.29642937 0.0023331968 0.064544216 -0.16792937 -0.47873592
0.059436876 -0.35483438 0.09409076 -0.22065419 -0.012083965 0.076806985 -0.111466475 0.0072982404
00000000: b36d 9d3d d9cd 713d 18d2 adbf 6acd af3c
00000010: 84e5 ccbf 692a 843d 2c84 12be de7f 2e3d
00000020: 27a5 ffbf ea38 e9bd 6d14 debe 302e d9be
00000030: b1dc 283e bfee cbbf c5d4 8ebd eca9 8ebe
00000040: cf55 71be 368b 16bc 32f0 10be 3d9b 56be
00000050: 9881 80be d27a 2ebd de78 03b9 dcea c53d
00000060: 77f6 783d 6711 fcbd c538 ccbd 9ff3 0ebe
00000070: a654 c83d 8964 723d 193b 1abd 3c90 42be
00000080: ca2a fbbe f9d9 c23d 49ec 04c0 4fc4 b73c
00000090: ab9f d73d b096 a9bd e737 193d f23e 023e
000000a0: 1ebd 903b bb13 4cbe 175e bfbd bfbe 603d
000000b0: 4e06 7c3c a702 49c0 0564 133d 66b7 35bf
000000c0: e043 d4bf e120 b7bc 40ea 18bf 4d8e c9be
000000d0: 0880 2e3c 0b35 653d 06dc d6be baa6 03bf
000000e0: 41c2 803d 45a9 d4be 97e9 643d 4f24 afbe
000000f0: 54ef 96bf 8da5 703d 39d2 1e3d f041 323b
00000100: 6cbf 903d d3f8 353d ab82 1fc0 a27b 92bd
00000110: c24c b6bf 8f54 b73d 4ac1 7ebe d871 103d
00000120: df0a 47c0 0916 9bbe d91b edbe b5fe 18bf
00000130: 1c5a b43d 48ee b8bf 49c7 21be 593c 70be
00000140: 4108 b1bd 4e43 86bc dd7a 49bd 7c7e 86be
00000150: aaf8 babe 8ee8 a0be e873 ee3c 3e38 f13c
00000160: f471 e83d da38 c8bd 7a72 6abe 4cfd 12bc
00000170: 4348 7d3d b305 a53d bd01 85bd 7e98 afbe
00000180: fbb8 15bf cc2e cc3d 0b1a 4ec0 ad73 8a3d
00000190: c093 f83d 90f6 153b 72aa b13a f2c1 963d
000001a0: 3a8f dabd eb87 28be c42e 8ebd 4ade 43bb
000001b0: 9026 02be a4e7 2fc0 e5b7 5abe 135b 15bf
000001c0: 6f3c 06c0 11e1 fbbd f280 14bf ca95 f7be
000001d0: 82a6 0b3d b671 a23d 0a46 15bf ee50 16bf
000001e0: d1a1 933d c8a3 20be ac9a 9f3d fea1 afbe
000001f0: eea3 11c0 378c a13d f7ca 17bd ec17 aa3d
00000200: 644f 823d 20e2 3a3d cbbe 3fbf 5297 593d
00000210: cb7b 3abf 04dc a13d 8b05 70bd 4b37 ef3b
00000220: a653 51bf 9c5a 30be 835f 2dbf a9d3 22bf
00000230: 6b41 b53d c99b 8fbf e36d 06be ed10 8cbe
00000240: 0214 1dbe 8618 f13a bdbd 0cbe 49ad cabe
00000250: 263c c2be 9669 81be 4d9e 613c c803 ea3d
00000260: 4d41 a93d 49e3 22be 87a9 99be 4d8f 16be
00000270: 0c44 8d3d e11f a43d b39a 09bd fae8 b8be
00000280: 21e5 26bf 3b1d c23d 4487 05bf e3ac 903d
00000290: 971c a23d b604 00bd 16d7 673d 0750 f13d
000002a0: f6e2 c4bc a1c2 07be ccf9 1fbe 6da0 15bc
000002b0: 5d78 84bd 1a20 09bf 6b66 7abd 44d4 31bf
000002c0: 4ffc d3bf d154 48be 1f9a 19bf fd93 00bf
000002d0: 621b b1ba bc62 a93d d58d 0dbf d555 00bf
000002e0: 344c 463d 5893 65be 58e1 933d 7a37 e7be
000002f0: a1ee b3bf 97a8 823d 5824 ddbc 8020 113d
00000300: 2dfd 723d f572 7e3d fd69 6e3d 4175 bb3c
00000310: 991d f2be 654e b53d 00c1 4cbe 0e5a 303c
00000320: 167b 15be f5b4 54be 2064 d1be 3036 a4be
00000330: 0192 073e dd73 393e f985 afbd 18d1 81be
00000340: a7de 14be 112d 24bc 5099 03be beb0 91be
00000350: f9c8 2ebe bc51 44be 4c37 673a 455e 853d
00000360: f82f a93d dc6b c6bd 683e 74bd d4fe e4bd
00000370: 037e 753d db1a bf3d 774d 2fbd 00d3 babe
00000380: 2c24 d9be 5cf0 c33d d8cf 50be a750 103d
00000390: 635b b03d b286 48bd faee 193d e745 aa3d
000003a0: 3488 b0bd 011a 10be 4163 aebd 790f 31bb
000003b0: edb5 4dbd a70c 86be face 66bd e4e8 06bf
000003c0: 0635 2cbd 188f 3abe 39a6 eebe 97c5 97be
000003d0: 8ce8 183b c22f 843d adf5 2bbe e01c f5be
000003e0: 1574 733d daac b5be a8b2 c03d 2cf3 61be
000003f0: d3fb 45bc fb4c 9d3d 8948 e4bd 1426 ef3b

output_fc.bias f4 [19]
-0.09136392 -0.0180454 -0.03877354 -0.09347781 0.11680546 -3.7243946 -2.4617205 -0.96354425
0.26612884 -0.124436125 -0.110368855 -0.7682835 -0.8895555 0.3408292 0.5455819 0.56266505
0.55701053 0.91631484 -0.12452998
00000000: 021d bbbd f2d3 93bc 01d1 1ebd 4b71 bfbd
00000010: b337 ef3d 7b5c 6ec0 d48c 1dc0 d6aa 76bf
00000020: 0a42 883e 5ed8 febd 1109 e2bd 3aae 44bf
00000030: e9b9 63bf 2a81 ae3e 41ab 0b3f d10a 103f
00000040: 3e98 0e3f 9c93 6a3f 9309 ffbd
